models/-method-disconet-jsd_lambda-0-n_epochs-50-save_model.pt (torch, 183337 bytes, 18 tensors)

main.0.weight f4 [8, 1, 3, 3]
0.19062246 -0.12039882 -0.055328444 0.17234416 -0.3431679 0.1981078 -0.043534108 0.15228829
0.05771241 -0.050383672 0.17058109 0.041917983 0.07304041 -0.116753265 -0.051422965 -0.06363762
0.014635414 -0.042428706 0.3334879 0.17571945 -0.07645649 -0.1968861 -0.075205036 -0.18285088
-0.08417487 -0.14856704 0.10887446 0.16355184 -0.24546012 0.39670765 0.021160793 0.2859887
0.36873436 -0.3555846 -0.4030571 -0.047863677 0.21744874 -0.103254214 0.1696645 -0.18818913
0.26887822 -0.15065989 0.22215475 -0.04575832 -0.24900554 0.1100363 -0.21859433 0.10408465
-0.11879374 -0.0705919 -0.30376726 -0.27064455 0.057619717 -0.063480616 0.22659269 0.40031978
-0.16286197 -0.284453 0.37385458 -0.028369226 -0.28892386 0.38135806 0.08016078 0.27997923
-0.21071328 0.0030781168 -0.0020499718 -0.001152821 -0.19315732 -0.21295336 0.105154246 -0.08962792
00000000: 8932 433e a893 f6bd 14a0 62bd fd7a 303e
00000010: b4b3 afbe c5dc 4a3e d250 32bd 76f1 1b3e
00000020: d963 6c3d 1c5f 4ebd cfac 2e3e 31b2 2b3d
00000030: 3696 953d 561c efbd e3a0 52bd 7154 82bd
00000040: 60c9 6f3c b9c9 2dbd edbe aa3e cdef 333e
00000050: 3895 9cbd 839c 49be 1905 9abd 433d 3bbe
00000060: e063 acbd f521 18be 93f9 de3d 227a 273e
00000070: e659 7bbe 441d cb3e 6659 ad3c 1c6d 923e
00000080: c0ca bc3e 2f0f b6be 805d cebe b40c 44bd
00000090: e2aa 5e3e f276 d3bd 88bc 2d3e a7b4 40be
000000a0: 68aa 893e 9646 1abe 897c 633e 136d 3bbd
000000b0: 4ffb 7ebe b65a e13d 31d7 5fbe 552a d53d
000000c0: 224a f3bd 7c92 90bd 6287 9bbe ec91 8abe
000000d0: a702 6c3d 2002 82bd ea07 683e b7f6 cc3e
000000e0: 4ac5 26be d3a3 91be de69 bf3e 9466 e8bc
000000f0: d4ed 93be 5d41 c33e 562b a43d 7059 8f3e
00000100: 39c5 57be 3bba 493b d258 06bb 411a 97ba
00000110: 08cb 45be 7210 5abe 1c5b d73d d88e b7bd

main.0.bias f4 [8]
0.26399735 -0.056006 -0.025996594 -0.13623972 0.13732691 0.2009239 -0.23927628 0.1391231
00000000: a92a 873e 8c66 65bd cff6 d4bc 6d82 0bbe
00000010: 6d9f 0c3e ffbe 4d3e d704 75be 4976 0e3e

main.2.weight f4 [16, 8, 3, 3]
-0.039995767 -0.028309237 0.039744835 -0.10965839 0.06658857 -0.058093112 -0.21697226 0.18340957
-0.021022791 0.18377873 0.09330285 -0.005374855 0.08884252 0.09395542 -0.038660154 0.024452545
-0.033723306 -0.05043886 0.05781161 0.003054456 0.13495967 -0.02116661 0.2272212 0.15278295
-0.05521354 -0.21737006 -0.045242935 0.12753221 0.27467787 0.09801591 0.004883875 0.11393034
0.098635584 -0.22640339 0.08541765 -0.07959957 0.061372783 0.16316509 0.052564196 -0.07971123
-0.0858862 0.06724331 0.12236299 -0.18473065 0.18396674 -0.08864002 -0.15767421 -0.064265676
0.10133258 0.1369848 -0.102346346 -0.007932419 0.05200021 0.07167097 0.16408922 0.12780944
0.19715877 0.07221387 -0.11339723 -0.08750088 -0.0022276414 -0.09864356 -0.064271234 -0.009089951
0.011537336 0.031438537 0.05229262 0.048588227 0.11102513 0.078702755 -0.13273159 0.13688967
-0.022462865 -0.058056433 -0.18476681 0.011745348 -0.06564035 -0.1555407 0.08464369 -0.02716349
-0.20102398 0.0551472 0.012541674 0.20604216 -0.020862706 -0.05073833 -0.010507972 0.016882878
-0.078724146 0.12499522 0.022269377 -0.03701595 0.045086775 -0.00036624138 -0.02021677 0.10561485
0.0286214 -0.10429872 -0.01634429 -0.016248425 -0.016572077 -0.016499445 -0.113384455 0.07035201
-0.10506186 0.03760968 -0.067635536 -0.08403173 -0.0075598015 -0.10372765 0.14798358 -0.026839113
-0.09137528 0.060323887 0.11255851 -0.14143439 0.12256749 0.05101161 0.118518166 -0.1516181
0.05947207 -0.053048916 -0.006589278 -0.03990344 0.107241556 -0.11827451 -0.0279524 -0.043929428
0.19644792 0.036693368 -0.014326502 0.26286042 -0.12006824 0.018494276 0.31349632 0.069010146
0.06881463 0.030155085 0.03082666 0.12426623 -0.04295957 0.088107504 -0.060560923 -0.014849392
0.21349041 -0.12071276 -0.05871802 0.1869209 -0.045399543 0.12434402 0.04965969 -0.09182498
0.08464642 0.03714139 -0.08552923 -0.03366165 -0.10115812 0.10672932 0.067951575 -0.059817538
-0.13954796 -0.04146288 0.19550604 -0.027131561 -0.13749284 -0.105679974 -0.048567243 -0.0676656
-0.13229612 0.08623927 0.034136176 -0.12304969 -0.09887284 0.11761875 -0.10351247 -0.0394252
0.096038625 -0.15584782 -0.13916072 -0.0036810606 0.13457957 0.10875147 -0.06110015 0.1897014
0.042198587 -0.13228734 0.15705393 -0.14823864 0.07600021 -0.13975495 0.025635064 -0.018602615
-0.015681691 0.105000354 -0.041626085 -0.13246198 -0.11693035 -0.0015321175 -0.09172143 0.12381253
-0.004951726 -0.017818829 0.18515778 0.0050483607 -0.026001116 -0.06911157 -0.15157065 0.18204702
-0.00020625851 -0.023581112 0.050044473 -0.0784664 0.05920697 0.106783696 -0.030252757 -0.094516
-0.13157624 -0.05942128 -0.059630014 -0.08188282 0.074952416 -0.03612771 -0.091970466 -0.06486259
0.1329885 -0.0958566 -0.21730722 0.042544812 0.025551252 0.14017701 -0.034971617 -0.19697729
-0.18158473 -0.19444856 0.01694091 -0.17841312 -0.12565999 0.14062747 0.04802892 0.012754164
-0.0035626008 -0.024516882 0.20435335 -0.00265878 0.16307575 -0.17808618 -0.021202581 0.22950245
-0.121491805 -0.14617738 0.17981148 0.05354569 0.034939688 -0.14701049 -0.027235793 -0.06357918
00000000: 9ad2 23bd c6e8 e7bc 7bcb 223d 9494 e0bd
00000010: 975f 883d 0bf3 6dbd fa2d 5ebe b8cf 3b3e
00000020: fd37 acbc 7e30 3c3e 9115 bf3d 8d1f b0bb
00000030: 11f3 b53d b36b c03d 1c5a 1ebd b450 c83c
00000040: 7321 0abd fa98 4ebd decb 6c3d 452d 483b
00000050: de32 0a3e 9965 adbc adac 683e 2273 1c3e
00000060: 9827 62bd 4296 5ebe a850 39bd ce97 023e
00000070: 94a2 8c3e 91bc c83d ea08 a03b 4f54 e93d
00000080: 7401 ca3d 4ad6 67be 73ef ae3d 1905 a3bd
00000090: 0762 7b3d c014 273e 8e4d 573d a43f a3bd
000000a0: 1be5 afbd dcb6 893d 7399 fa3d 082a 3dbe
000000b0: c761 3c3e e688 b5bd 5975 21be b99d 83bd
000000c0: 7587 cf3d be45 0c3e f69a d1bd faf6 01bc
000000d0: 2cfe 543d 3bc8 923d 0107 283e 7ae0 023e
000000e0: fde3 493e dee4 933d cf3c e8bd a933 b3bd
000000f0: 9ffd 11bb a305 cabd a3a0 83bd 05ee 14bc
00000100: 1807 3d3c b2c5 003d c930 563d 7304 473d
00000110: 2561 e33d e92e a13d caea 07be ce2c 0c3e
00000120: 0b04 b8bc 95cc 6dbd 8333 3dbe 8f6f 403c
00000130: 736e 86bd 1046 1fbe ac59 ad3d f885 debc
00000140: 3bd9 4dbe 08e2 613d 987b 4d3c b7fc 523e
00000150: 44e8 aabc ffd2 4fbd a129 2cbc f64d 8a3c
00000160: 203a a1bd 7efd ff3d 456e b63c 099e 17bd
00000170: e9ac 383d 1604 c0b9 a49d a5bc 994c d83d
00000180: 6d77 ea3c 919a d5bd 76e4 85bc 6b1b 85bc
00000190: 2ac2 87bc d829 87bc 1c36 e8bd b714 903d
000001a0: ac2a d7bd 9c0c 1a3d 8084 8abd d418 acbd
000001b0: 36b8 f7bb 2a6f d4bd 0289 173e b3dd dbbc
000001c0: f622 bbbd 2e16 773d 1385 e63d 2dd4 10be
000001d0: aa04 fb3d 8df1 503d a7b9 f23d c641 1bbe
000001e0: fc98 733d d249 59bd dfea d7bb ca71 23bd
000001f0: 76a1 db3d e839 f2bd 6efc e4bc 58ef 33bd
00000200: a529 493e c94b 163d b4b9 6abc a495 863e
00000210: 56e6 f5bd 4f81 973c 9782 a03e 3155 8d3d
00000220: afee 8c3d cc07 f73c 3188 fc3c 4b7f fe3d
00000230: 60f6 2fbd b571 b43d bb0e 78bd dd4a 73bc
00000240: 3b9d 5a3e 4038 f7bd 4e82 70bd 3168 3f3e
00000250: dff4 39bd 14a8 fe3d f667 4b3d bc0e bcbd
00000260: 1a5b ad3d 9221 183d f329 afbd cce0 09bd
00000270: fd2b cfbd e794 da3d 322a 8b3d 3c03 75bd
00000280: a9e5 0ebe fbd4 29bd bc32 483e 0243 debc
00000290: ecca 0cbe be6e d8bd 72ee 46bd 4394 8abd
000002a0: a278 07be 379e b03d 60d2 0b3d 7a01 fcbd
000002b0: d87d cabd 19e2 f03d 59fe d3bd 527c 21bd
000002c0: e6af c43d 9296 1fbe 2680 0ebe f33d 71bb
000002d0: 3acf 093e 17b9 de3d 2744 7abd 1541 423e
000002e0: 6dd8 2c3d 5576 07be bfd2 203e dfcb 17be
000002f0: 00a6 9b3d ec1b 0fbe a000 d23c 8364 98bc
00000300: e476 80bc 6d0a d73d 1d80 2abd 1da4 07be
00000310: 2e79 efbd 55d1 c8ba 72d8 bbbd 6c91 fd3d
00000320: 1742 a2bb cbf8 91bc 009a 3d3e b86c a53b
00000330: 4b00 d5bc 5e8a 8dbd 5635 1bbe 896a 3a3e
00000340: 1947 58b9 2d2d c1bc 6ffb 4c3d feb2 a0bd
00000350: 0283 723d 69b1 da3d a1d4 f7bc 9b91 c1bd
00000360: ecbb 06be ba63 73bd 9a3e 74bd 2eb2 a7bd
00000370: a780 993d a6fa 13bd 035b bcbd add6 84bd
00000380: 232e 083e 7750 c4bd c985 5ebe 7843 2e3d
00000390: dc50 d13c 908a 0f3e 663e 0fbd 6ab4 49be
000003a0: 59f1 39be 861d 47be aac7 8a3c eeb1 36be
000003b0: 03ad 00be a600 103e f9b9 443d d7f6 503c
000003c0: 867a 69bb a1d7 c8bc 0142 513e ed3e 2ebb
000003d0: 54fd 263e 395c 36be 09b1 adbc b102 6b3e
000003e0: b2d0 f8bd 86af 15be 8020 383e ba52 5b3d
000003f0: eb1c 0f3d eb89 16be 991d dfbc cd35 82bd

main.2.bias f4 [16]
0.08551561 -0.101839624 0.08958818 -0.043177865 -0.019815957 -0.043021124 -0.016672771 -0.06477359
0.030537589 -0.08633608 0.08644801 -0.097627 -0.06553753 -0.080998495 0.067948505 0.0747313
00000000: cf22 af3d 4b91 d0bd 027a b73d 46db 30bd
00000010: 1355 a2bc eb36 30bd 5695 88bc 04a8 84bd
00000020: f729 fa3c f9d0 b0bd a70b b13d aaf0 c7bd
00000030: 8a38 86bd 8ae2 a5bd 9628 8b3d b90c 993d

main.3.weight f4 [16]
0.90907216 1.1596557 0.87338316 0.8436677 1.0062183 0.9808913 0.8227525 0.8859426
0.8976829 1.0236183 1.0960017 1.0263793 0.8700461 1.0300373 1.0111223 0.9767459
00000000: f4b8 683f 996f 943f 0a96 5f3f 9bfa 573f
00000010: c3cb 803f b11b 7b3f e89f 523f 22cd 623f
00000020: 8cce 653f ed05 833f c949 8c3f 6660 833f
00000030: 57bb 5e3f 43d8 833f 756c 813f 050c 7a3f

main.3.bias f4 [16]
-0.1538131 -0.07904421 -0.25967875 -0.18984571 -0.09917837 -0.20801967 -0.110694066 -0.1429245
-0.06706275 -0.21822613 -0.18150307 -0.08163752 -0.1364317 -0.16989788 -0.03291963 -0.14536329
00000000: 2e81 1dbe eee1 a1bd 9df4 84be ea66 42be
00000010: 071e cbbd 1c03 55be 92b3 e2bd cd5a 12be
00000020: 3258 89bd ac76 5fbe f1db 39be 9231 a7bd
00000030: c0b4 0bbe b6f9 2dbe bcd6 06bd 1dda 14be

main.3.running_mean f4 [16]
0.12706089 -0.23397154 0.23642573 -0.19277625 -0.048362225 0.032076586 -0.10987554 0.029200854
-0.030670611 -0.044875707 0.08795516 -0.26418343 -0.2614055 -0.33424926 -0.027673494 0.13118736
00000000: 401c 023e 3c96 6fbe 9619 723e 2367 45be
00000010: 7817 46bd bd62 033d 6d06 e1bd a136 ef3c
00000020: ef40 fbbc 97cf 37bd d621 b43d 0d43 87be
00000030: f1d6 85be b822 abbe 86b3 e2bc fb55 063e

main.3.running_var f4 [16]
0.02263556 0.016623046 0.019638875 0.022880267 0.014519673 0.021203823 0.021518998 0.015626831
0.030774625 0.018729098 0.018998777 0.014752299 0.018325849 0.016236678 0.03678783 0.024372285
00000000: 366e b93c 0e2d 883c b5e1 a03c 666f bb3c
00000010: ece3 6d3c a4b3 ad3c 9c48 b03c d703 803c
00000020: 111b fc3c c46d 993c 53a3 9b3c a0b3 713c
00000030: 1720 963c c802 853c d6ae 163d 63a8 c73c

main.5.weight f4 [32, 16, 3, 3]
-0.012362603 -0.00086807046 0.08805865 -0.05291982 0.012543198 -0.020511432 0.0061554224 0.05878896
-0.013743544 0.045948375 0.08699824 -0.07361615 0.018511975 0.16799171 -0.22906831 -0.01564304
0.14815865 -0.09963491 0.07707921 0.1390435 -0.02649868 0.019134603 0.06284955 0.06786264
-0.023025708 0.031185852 0.06484032 -0.10097279 -0.03305127 -0.21481696 -0.04376062 -0.022224834
-0.025928091 -0.07333937 0.054443095 -0.0058695045 0.017465277 -0.07996132 0.1597581 0.08411466
-0.027590025 0.0729599 0.050534133 -0.06947335 0.07876697 -0.0064699147 -0.060382493 0.098684624
-0.074430384 0.01978032 0.102099925 0.006709719 -0.10858544 -0.008059622 0.10259803 -0.0022585206
0.08509409 0.08725046 -0.06146009 0.034709428 0.013691146 -0.018266903 -0.060464755 -0.2142309
-0.14290246 0.104682006 0.032825362 0.075079754 0.022222478 -0.025085384 0.10496111 -0.20514812
-0.011602337 0.06751767 -0.12789458 0.16128695 -0.05577095 0.08507308 -0.035292014 -0.07493403
-0.010265002 0.031508245 0.0318664 -0.003388337 -0.053138517 -0.053448793 -0.13729894 0.057715468
-0.032766134 -0.08336217 0.05814629 0.02420343 -0.12205525 0.08734058 -0.08248357 -0.14881793
-0.036536936 -0.10062513 -0.12172885 -0.1158104 0.018737268 0.073467925 -0.024466503 0.023227872
0.062027436 -0.124870464 0.11409302 0.056412444 -0.07209448 0.09632685 -0.12563746 -0.002337043
-0.08539919 0.066681124 -0.046687815 0.019784033 0.030075852 -0.045244496 0.09138669 0.06189816
-0.038658146 0.061300315 -0.017635034 -0.13065867 -0.06516403 -0.028285215 0.14785722 -0.037444446
0.19325021 0.008605233 -0.15292497 0.121149145 0.11755571 -0.09163731 0.047647994 -0.01141947
-0.03479116 -0.040540386 -0.17724642 0.02199927 0.09736219 -0.14482252 -0.030397348 -0.10380225
-0.08972307 -0.04267887 -0.111479305 -0.03828466 -0.27891773 -0.11406382 -0.090945706 -0.052516155
0.09164556 0.084313065 -0.15709282 -0.06926785 -0.041834343 -0.28463006 0.09726747 -0.056882627
-0.11715885 0.09972197 -0.051396795 0.078898385 -0.1358121 0.041610073 0.012072324 -0.019885236
-0.11900746 0.13088146 0.03694473 0.10202242 0.06578951 -0.0041679465 -0.10423604 0.026333505
-0.059901625 -0.015292123 -0.05125726 0.06821332 0.04387298 0.17782617 0.031078847 -0.16842458
0.05816224 0.052963313 -0.019175278 0.014087714 0.095651716 0.110909134 0.11222414 -0.008884888
-0.040547322 0.07165304 0.10182021 -0.15361524 0.007367972 0.08130798 -0.09831144 0.03845609
-0.048493132 -0.008281204 -0.05679621 0.010487267 0.042394165 -0.040714074 -0.0048664594 0.062666304
-0.015364184 -0.08460597 -0.011851504 -0.005155259 0.011255042 0.011649405 0.03084089 0.0939363
-0.041585244 -0.045620713 -0.02538204 -0.002681221 -0.012697453 0.007303751 0.014205084 -0.05376234
-0.08106211 -0.18592308 0.07227574 -0.018068712 -0.090099424 -0.1396776 0.001296789 0.02459397
-0.088788144 -0.05372588 0.01388257 -0.035873413 0.094271675 -0.09677843 -0.0007952347 -0.07534116
0.011836727 0.09923353 -0.077528134 -0.0024014206 0.12487929 -0.120178536 0.19598997 0.21214744
-0.04603661 -0.052455958 0.034629084 -0.04010595 -0.0386326 0.07581047 0.024032962 -0.14824958
00000000: 848c 4abc 398f 63ba 1858 b43d 74c2 58bd
00000010: fc81 4d3c 9707 a8bc 6db3 c93b b1cc 703d
00000020: 9a2c 61bc 5d34 3c3d 222c b23d 10c4 96bd
00000030: 6da6 973c 0506 2c3e e290 6abe d525 80bc
00000040: e7b6 173e 630d ccbd b4db 9d3d 6b61 0e3e
00000050: c213 d9bc 2cc0 9c3c 44b7 803d 91fb 8a3d
00000060: 69a0 bcbc 7979 ff3c 00cb 843d d2ca cebd
00000070: c560 07bd faf8 5bbe 563e 33bd db10 b6bc
00000080: 2667 d4bc f432 96bd b9ff 5e3d f954 c0bb
00000090: 5713 8f3c c3c2 a3bd a197 233e 4f44 ac3d
000000a0: 7a04 e2bc 006c 953d e1fc 4e3d 0b48 8ebd
000000b0: 9450 a13d 9401 d4bb a253 77bd 2a1b ca3d
000000c0: f56e 98bd 560a a23c c419 d13d 34dd db3b
000000d0: 0b62 debd 810c 04bc ea1e d23d b003 14bb
000000e0: cf45 ae3d 5fb0 b23d 93bd 7bbd 792b 0e3d
000000f0: d450 603c 79a4 95bc e4a9 77bd 585f 5bbe
00000100: 0655 12be 8563 d63d e373 063d 6ac3 993d
00000110: ea0b b63c dd7f cdbc daf5 d63d 5912 52be
00000120: ba17 3ebc b446 8a3d ccf6 02be 6828 253e
00000130: 1470 64bd cc3a ae3d 5c8e 10bd 0377 99bd
00000140: 8a2e 28bc ca0e 013d 5886 023d dd0e 5ebb
00000150: c6a7 59bd 1fed 5abd 1898 0cbe 0e67 6c3d
00000160: c835 06bd c9b9 aabd ce2a 6e3d 4646 c63c
00000170: 1af8 f9bd 9edf b23d 25ed a8bd ba63 18be
00000180: c1a7 15bd 8c14 cebd fa4c f9bd 012e edbd
00000190: e67e 993c 5a76 963d fa6d c8bc 6148 be3c
000001a0: 7b10 7e3d 16bc ffbd 9aa9 e93d bc10 673d
000001b0: 45a6 93bd 0347 c53d 1ba7 00be 1329 19bb
000001c0: c5e5 aebd 1d90 883d b93b 3fbd 2012 a23c
000001d0: a261 f63c 4b52 39bd f228 bb3d ed88 7d3d
000001e0: 0158 1ebd 0a16 7b3d 5977 90bc 63cb 05be
000001f0: b874 85bd 65b6 e7bc e267 173e 595f 19bd
00000200: 62e3 453e f7fc 0c3c 5d98 1cbe 0b1d f83d
00000210: 0cc1 f03d 58ac bbbd 8b2a 433d bb18 3bbc
00000220: 2d81 0ebd ad0d 26bd 1680 35be d037 b43c
00000230: d465 c73d 5b4c 14be dc03 f9bc 4696 d4bd
00000240: bbc0 b7bd 0ad0 2ebd 434f e4bd 60d0 1cbd
00000250: 4ece 8ebe 4b9a e9bd be41 babd 2e1b 57bd
00000260: abb0 bb3d 54ac ac3d f1dc 20be 4ddc 8dbd
00000270: 7d5a 2bbd 08bb 91be 2b34 c73d c2fd 68bd
00000280: fbf0 efbd 083b cc3d 7285 52bd 7a95 a13d
00000290: 5412 0bbe 536f 2a3d ffca 453c 5de6 a2bc
000002a0: 2fba f3bd ca05 063e 5b53 173d 21f1 d03d
000002b0: a7bc 863d 4593 88bb b479 d5bd 5db9 d73c
000002c0: 685b 75bd d08b 7abc 22f3 51bd 6db3 8b3d
000002d0: 27b4 333d 1018 363e 1199 fe3c 7e77 2cbe
000002e0: 873b 6e3d 0ff0 583d 7915 9dbc 28d0 663c
000002f0: 0ce5 c33d 5424 e33d c5d5 e53d ec91 11bc
00000300: f314 26bd d4be 923d 1d87 d03d 504d 1dbe
00000310: 076f f13b cc84 a63d 8257 c9bd 2284 1d3d
00000320: bca0 46bd e3ad 07bc 25a3 68bd c9d2 2b3c
00000330: 81a5 2d3d cdc3 26bd d276 9fbb 3157 803d
00000340: 0fba 7bbc e545 adbd d02c 42bc 72ed a8bb
00000350: 1167 383c 25dd 3e3c 09a6 fc3c ad61 c03d
00000360: 4a55 2abd c9dc 3abd ffed cfbc 6db7 2fbb
00000370: fa08 50bc 4e54 ef3b 71bc 683c e635 5cbd
00000380: e403 a6bd 9f62 3ebe 4e05 943d d604 94bc
00000390: 0c86 b8bd a507 0fbe 05f9 a93a 4b79 c93c
000003a0: 8fd6 b5bd ab0f 5cbd b873 633c 00f0 12bd
000003b0: 8211 c13d c533 c6bd 4c77 50ba 774c 9abd
000003c0: d5ee 413c f33a cb3d 12c7 9ebd 2761 1dbb
000003d0: b7c0 ff3d 2a20 f6bd 98b1 483e 2e3d 593e
000003e0: e290 3cbd 0fdc 56bd 3ad7 0d3d 2346 24bd
000003f0: 383d 1ebd 8542 9b3d c6e0 c43c bdce 17be

main.5.bias f4 [32]
0.0150222955 0.059416883 -0.00021364738 -0.026985053 0.055153575 -0.0006704469 -0.050013017 -0.034778427
0.022749886 -0.012327929 -0.016507572 0.027854184 -0.082343146 -0.033423252 -0.08256722 0.0018936234
0.025454383 0.0141056245 0.0061753225 0.022538327 0.011406685 0.018426843 -0.03249733 0.07466741
-0.027256135 0.037976433 0.08146175 0.009829571 -0.044096477 -0.018412706 -0.07639634 -0.05593191
00000000: 1320 763c 1e5f 733d 8806 60b9 c20f ddbc
00000010: b7e8 613d eec0 2fba 73da 4cbd d373 0ebd
00000020: f85d ba3c 15fb 49bc e33a 87bc 752e e43c
00000030: 86a3 a8bd d2e6 08bd 0119 a9bd 7533 f83a
00000040: b685 d03c 471b 673c 5c5a ca3b 4ca2 b83c
00000050: 1be3 3a3c e4f3 963c ec1b 05bd 3aeb 983d
00000060: 4248 dfbc 2d8d 1b3d 6bd5 a63d 350c 213c
00000070: 829e 34bd 3ed6 96bc af75 9cbd dc18 65bd

main.6.weight f4 [32]
1.0732814 1.095059 1.0448002 1.1638784 1.0877768 1.125293 1.1162679 1.06963
1.1147497 1.0103003 1.081042 1.0807687 1.0232474 1.1398255 1.022543 1.1063949
1.1356889 1.1303521 1.1870525 1.0800576 1.1177927 0.96934277 1.0691756 1.0989976
1.0099341 1.0380965 1.1304333 1.1073223 1.100318 1.0212862 1.156044 1.1412057
00000000: 4961 893f e52a 8c3f 03bc 853f f8f9 943f
00000010: 453c 8b3f 9a09 903f dee1 8e3f a3e9 883f
00000020: 1eb0 8e3f 8551 813f 965f 8a3f a156 8a3f
00000030: c5f9 823f cde5 913f b0e2 823f 599e 8d3f
00000040: 415e 913f 61af 903f 56f1 973f 543f 8a3f
00000050: d513 8f3f d926 783f bfda 883f f4ab 8c3f
00000060: 8545 813f 59e0 843f 0ab2 903f bdbc 8d3f
00000070: 38d7 8c3f 82b9 823f 40f9 933f 0713 923f

main.6.bias f4 [32]
-0.0133662205 0.0022339511 -0.05920063 -0.0054928963 -0.05287557 -0.059220187 -0.058768474 -0.04594049
-0.093400836 -0.08287042 -0.0554288 -0.045406338 -0.0011423113 0.0039432435 -0.041970104 -0.002145495
-0.0043066167 -0.012181197 -0.018556355 -0.03156154 0.003414253 -0.08459524 -0.035449572 -0.036553066
-0.04736559 -0.062644586 -0.040118527 -0.05758086 -0.031512555 -0.012618577 0.04750122 -0.06152872
00000000: fefd 5abc 7b67 123b 5c7c 72bd c1fd b3bb
00000010: 0e94 58bd de90 72bd 36b7 70bd 182c 3cbd
00000020: f048 bfbd f7b7 a9bd 4f09 63bd fffb 39bd
00000030: 9bb9 95ba 5336 813b d8e8 2bbd 6f9b 0cbb
00000040: 851e 8dbb a593 47bc 7f03 98bc ac46 01bd
00000050: a9c1 5f3b 4540 adbd 9233 11bd abb8 15bd
00000060: 6c02 42bd ce4b 80bd 5353 24bd e8d9 6bbd
00000070: 4f13 01bd 26be 4ebc a490 423d 8a05 7cbd

main.6.running_mean f4 [32]
-0.20169318 -0.09513665 0.28521898 0.36242655 -0.19045596 0.17577098 -0.0020484447 -0.298443
0.07689727 -0.13150524 -0.27151927 -0.2785356 0.21360824 -0.24062152 -0.089894354 -0.013832819
0.19832434 -0.21010688 -0.30042195 -0.0050586932 -0.13001703 0.3620185 -0.3246544 0.055352177
-0.06670209 -0.43754292 0.11102506 -0.36070266 0.3689146 0.6421603 0.28106824 -0.26844507
00000000: a888 4ebe 01d7 c2bd 3908 923e f98f b93e
00000010: e306 43be 4ffd 333e 333f 06bb 85cd 98be
00000020: 517c 9d3d 4fa9 06be 9304 8bbe 389c 8ebe
00000030: 1ebc 5a3e 7d65 76be 881a b8bd 0ca3 62bc
00000040: 8915 4b3e 4226 57be e8d0 99be 65c3 a5bb
00000050: 2f23 05be 7d5a b93e 1a39 a6be f7b8 623d
00000060: 1b9b 88bd a005 e0be 1b61 e33d 05ae b8be
00000070: 60e2 bc3e 9e64 243f 2de8 8f3e a271 89be

main.6.running_var f4 [32]
1.4126551 1.5923283 1.4284699 2.1303797 1.0046372 1.0203251 1.3735708 1.1724032
1.4067388 1.025274 1.033077 1.2319483 1.3104423 1.1616405 1.3096478 1.7128536
1.2048343 1.0919492 1.3563815 1.3124319 1.3117797 2.681138 1.6771135 2.4762838
1.2757316 1.1629043 1.4913867 1.5614835 2.2475295 2.5870373 1.75631 0.69697845
00000000: e2d1 b43f 6ad1 cb3f 1ad8 b63f 2458 0840
00000010: f497 803f 039a 823f 2bd1 af3f 4f11 963f
00000020: 0410 b43f 2e3c 833f de3b 843f 7bb0 9d3f
00000030: 93bc a73f a3b0 943f 8aa2 a73f c93e db3f
00000040: 0338 9a3f fec4 8b3f e99d ad3f c5fd a73f
00000050: 66e8 a73f c497 2b40 a8ab d63f 6f7b 1e40
00000060: 2c4b a33f 0cda 943f c2e5 be3f b1de c73f
00000070: 86d7 0f40 0592 2540 c4ce e03f 2e6d 323f

main.10.weight f4 [128, 288]
-0.01690264 0.0135483835 0.08043088 -0.009654276 0.08084503 0.024923239 -0.1114702 0.036528513
0.1319034 -0.02412778 -0.0044214525 -0.06940722 0.11455142 -0.07999436 -0.015553052 -0.022829117
0.005603808 0.028213058 -0.006580072 -0.005040469 -0.004550908 0.04559456 -0.004995015 0.011120328
0.0089757955 -0.14520673 -0.035786387 -0.017128304 0.011857653 -0.051313456 -0.18889906 0.0033393663
-0.11743547 -0.16980533 -0.083288155 -0.07556778 0.16902298 -0.015240361 -0.18481566 0.031122057
0.005168375 -0.13735689 0.14405665 -0.028356947 -0.16808425 0.115942396 0.08643904 -0.17231561
0.004159425 0.016612198 -0.111417264 0.102590114 0.021761177 -0.16183297 -0.09147009 0.057493605
0.11104829 -0.039966136 -0.057729952 0.08200243 -0.049798682 0.06192655 0.14333773 -0.01584982
0.088967524 0.03030999 0.121027045 0.009796518 0.08603206 -0.017973777 0.024559902 -0.130099
0.0955111 0.1578995 0.061674062 0.09409574 0.08331281 -0.12647685 0.027276758 -0.005027148
0.10754713 -0.04455796 -0.045772728 0.117725275 -0.06157271 -0.12446836 -0.0034248908 -0.03525547
0.06631586 0.059372578 0.049974486 -0.023519233 0.11288555 -0.06513893 -0.057997122 -0.02398629
-0.0902438 0.0010618784 -0.044822473 0.044888206 0.035961386 -0.039038055 -0.067387894 0.042999964
-0.015245786 0.120013945 -0.061686404 -0.061314277 -0.13976258 0.023859214 0.029258667 -0.015236749
-0.0076956535 0.06760775 -0.02849818 0.042534404 0.050623372 -0.010450326 -0.013728431 -0.053804215
-0.032365702 0.0054052672 -0.08644986 0.057644196 -0.008564392 -0.21582107 -0.050631844 0.018645005
-0.04117913 -0.038716756 0.082436465 0.06556645 -0.05293695 0.10553082 0.019330861 0.031312086
0.0053755124 0.08188829 -0.00794731 0.18629353 -0.044511218 -0.022165336 -0.0052384897 -0.014571966
0.040686272 0.037883468 -0.11717193 0.0044729575 0.10034056 -0.01448377 0.16311407 -0.18777142
-0.09234614 0.024903579 0.03511422 0.15064625 0.038791284 -0.16649485 0.07185455 0.09532729
0.04954163 -0.076013535 0.15656534 0.13828236 -0.10961062 0.018339625 -0.14629841 -0.12297946
0.105512656 0.057059806 -0.095122226 -0.015325226 0.092969775 -0.014412091 -0.043561384 -0.06432202
-0.06662426 -0.031774152 0.11355031 -0.05676497 -0.059669964 0.0026547257 0.06537383 0.12807767
0.06488393 0.00067708484 0.03693043 -0.123271294 0.16051005 -0.004162089 0.16322686 0.0758568
-0.037066106 0.07161218 0.046610925 -0.084942654 0.07211913 0.14799084 -0.064961456 0.042667173
0.048883617 0.011576733 0.0053513804 -0.09977168 -0.12253006 0.07724618 0.03775083 -0.0012994508
0.10805015 -0.009337851 -0.07247873 -0.070584826 0.0026628214 -0.05274611 0.15748216 -0.08822841
-0.08507386 -0.019687876 0.05865779 0.07504178 -0.04219951 -0.04164124 0.01749073 0.045277465
0.016824026 -0.073998794 0.04683239 0.07226167 -0.03235362 -0.015663732 0.103177175 -0.11505257
-0.061475847 0.14544886 0.0981853 0.07900825 -0.12427343 0.016887376 -0.029407805 -0.14953652
0.09558689 -0.004496096 -0.036060836 0.17037909 0.111325584 -0.10524932 0.03825798 -0.018971443
-0.095562 0.036448017 0.06970995 -0.056291386 0.10531132 0.13041961 -0.070605315 0.08533858
00000000: 6877 8abc 0afa 5d3c f2b8 a43d f82c 1ebc
00000010: 1492 a53d d22b cc3c 7d4a e4bd ec9e 153d
00000020: af11 073e 9fa7 c5bc d5e1 90bb 5f25 8ebd
00000030: ef99 ea3d 15d4 a3bd 3ad2 7ebc 2104 bbbc
00000040: 26a0 b73b 121f e73c a59d d7bb 852a a5bb
00000050: c91f 95bb 5dc1 3a3d 39ad a3bb 0932 363c
00000060: 370f 133c 13b1 14be bf94 12bd a850 8cbc
00000070: 9a46 423c 0f2e 52bd c16e 41be 45d9 5a3b
00000080: 0282 f0bd 73e1 2dbe fb92 aabd 48c3 9abd
00000090: 5c14 2d3e b5b2 79bc 5140 3dbe aff3 fe3c
000000a0: 795b a93b 49a7 0cbe 9683 133e d44c e8bc
000000b0: 471e 2cbe 3573 ed3d f406 b13d 8173 30be
000000c0: c94b 883b 4e16 883c bc2e e4bd c41a d23d
000000d0: 7f44 b23c 8bb7 25be ac54 bbbd 6a7e 6b3d
000000e0: 496d e33d 88b3 23bd 3e76 6cbd e4f0 a73d
000000f0: b4f9 4bbd b2a6 7d3d 20c7 123e 7bd7 81bc
00000100: 9b34 b63d a84c f83c 07dd f73d 9381 203c
00000110: 9431 b03d be3d 93bc d931 c93c ac38 05be
00000120: 539b c33d 68b0 213e f19d 7c3d 44b5 c03d
00000130: e89f aa3d 2683 01be 8273 df3c c6ba a4bb
00000140: ab41 dc3d 6882 36bd 2f7c 3bbd f319 f13d
00000150: aa33 7cbd 44e9 febd 2274 60bb 0a68 10bd
00000160: 9cd0 873d a930 733d 0cb2 4c3d 68ab c0bc
00000170: 8a30 e73d 8f67 85bd 648e 6dbd e57e c4bc
00000180: bed1 b8bd ba2e 8b3a c597 37bd b2dc 373d
00000190: 3f4c 133d 5ee6 1fbd aa02 8abd bb20 303d
000001a0: 76c9 79bc dfc9 f53d e2aa 7cbd ae24 7bbd
000001b0: ec1d 0fbe 6674 c33c dfaf ef3c 8fa3 79bc
000001c0: d22b fcbb ef75 8a3d 0475 e9bc 8e38 2e3d
000001d0: 745a 4f3d d837 2bbc 37ed 60bc cf61 5cbd
000001e0: e691 04bd ab1e b13b a00c b1bd 521c 6c3d
000001f0: aa51 0cbc 3300 5dbe 5663 4fbd 69bd 983c
00000200: 73ab 28bd 7695 1ebd 73d4 a83d b447 863d
00000210: 6ad4 58bd 8b20 d83d c15b 9e3c 1a41 003d
00000220: 1125 b03b 0cb5 a73d 6f35 02bc bbc3 3e3e
00000230: 6551 36bd 1494 b5bc a3a7 abbb 41bf 6ebc
00000240: a6a6 263d b22b 1b3d d6f7 efbd e391 923b
00000250: 5a7f cd3d 564d 6dbc 6007 273e 2747 40be
00000260: f91f bdbd 9702 cc3c eed3 0f3d 0343 1a3e
00000270: 9ce3 1e3d a07d 2abe 7a28 933d f43a c33d
00000280: 2aec 4a3d fcac 9bbd aa52 203e e499 0d3e
00000290: 887b e0bd fb3c 963c 40cf 15be a8dc fbbd
000002a0: 0517 d83d 8bb7 693d 71cf c2bd a816 7bbc
000002b0: f066 be3d b120 6cbc 6c6d 32bd 43bb 83bd
000002c0: 4d72 88bd 9d25 02bd 118d e83d 6382 68bd
000002d0: 7e68 74bd e8fa 2d3b b7e2 853d cb26 033e
000002e0: dee1 843d 657e 313a 5d44 173d a975 fcbd
000002f0: bf5c 243e 2262 88bb f124 273e cf5a 9b3d
00000300: a1d2 17bd 68a9 923d 19eb 3e3d 6af6 adbd
00000310: 32b3 933d e98a 173e 830a 85bd c6c3 2e3d
00000320: 303a 483d 56ac 3d3c a25a af3b 1855 ccbd
00000330: 0af1 fabd 3f33 9e3d 9da0 1a3d 5552 aaba
00000340: 6649 dd3d c9fd 18bc ba6f 94bd c78e 90bd
00000350: bb82 2e3b 4e0c 58bd 0143 213e 19b1 b4bd
00000360: 343b aebd 7848 a1bc 2743 703d 81af 993d
00000370: 65d9 2cbd 0190 2abd b848 8f3c dd74 393d
00000380: 8ad2 893c ae8c 97bd 52d3 3f3d edfd 933d
00000390: 3b85 04bd 3a51 80bc 8e4e d33d afa0 ebbd
000003a0: 19ce 7bbd 8cf0 143e 6015 c93d 14cf a13d
000003b0: 1183 febd 6557 8a3c a3e8 f0bc 1a20 19be
000003c0: 0fc3 c33d fd53 93bb 87b4 13bd db77 2e3e
000003d0: abfe e33d f58c d7bd 66b4 1c3d 006a 9bbc
000003e0: 03b6 c3bd 844a 153d 17c4 8e3d cc91 66bd
000003f0: 76ad d73d b88c 053e 8599 90bd fec5 ae3d

main.10.bias f4 [128]
-0.08370139 0.054014865 0.018499438 -0.045908567 -0.025612429 -0.021594321 0.05250918 -0.0332425
-0.020927811 0.076573804 -0.008797375 0.032583654 -0.031435754 0.030200979 0.050122008 0.0311818
-0.052632965 -0.027685799 0.03602088 0.01342282 0.0015106896 0.05041845 -0.031480744 0.07883626
-0.026110554 -0.037780736 0.017017242 -0.051730193 -0.031044481 -0.0962888 -0.03633601 0.053482283
0.088220164 -0.0076942323 0.029237034 -0.011631791 0.07941314 0.04335897 -0.01867981 0.0701563
0.07549595 -0.0028069722 -0.050515648 0.07721847 -0.026099397 0.023358433 -0.037570145 -0.056897294
-0.022258285 0.023308264 0.016486673 -0.013024279 -0.064932205 -0.028835097 0.059641026 -0.036853965
-0.024927752 -0.03173 -0.03543292 -0.029009905 -0.053762615 -0.017049992 -0.080017164 0.03654296
-0.007247321 -0.052855343 0.0016855155 -0.09371579 0.092088416 -0.0098842615 0.08998852 0.020569736
-0.02012859 0.013728228 0.023383971 -0.07423193 -0.02773661 -0.063300356 0.0063093686 -0.041427027
0.037275597 0.05150704 0.05431495 -0.03742076 0.10338059 -0.051845036 -0.016396707 -0.046794202
0.0027231602 0.038364828 -0.11356319 -0.006504818 -0.08049968 -0.036219366 0.0008617665 0.07931352
-0.039436296 0.008035901 -0.00810839 0.019727541 -0.037849046 0.028409151 0.034720737 -0.028425505
-0.07059642 -0.0030157682 0.04358891 0.057182845 -0.013898788 0.02340179 0.04394876 -0.023708552
0.023650566 -0.04582156 0.02705977 0.06591386 0.012851075 -0.04315593 -0.026259482 0.026053708
-0.08447462 0.10324323 0.021584561 -0.075140566 0.09637015 -0.01614874 0.012812626 -0.036570795
00000000: a26b abbd b13e 5d3d 228c 973c 9f0a 3cbd
00000010: 28d1 d1bc 93e6 b0bc de13 573d 4a29 08bd
00000020: cd70 abbc bad2 9c3d dd22 10bc 7076 053d
00000030: c7c2 00bd 0b68 f73c bc4c 4d3d f970 ff3c
00000040: aa95 57bd 54cd e2bc a18a 133d 63eb 5b3c
00000050: 5502 c63a 9483 4e3d f4f1 00bd e874 a13d
00000060: cde5 d5bc f9bf 1abd be67 8b3c 0ae3 53bd
00000070: ff50 febc 1033 c5bd 11d5 14bd 3d10 5b3d
00000080: c6ac b43d e61f fcbb 8182 ef3c 4493 3ebc
00000090: 5ba3 a23d 2d99 313d 6706 99bc 1bae 8f3d
000000a0: 9f9d 9a3d 2ef5 37bb 7fe9 4ebd b824 9e3d
000000b0: 67ce d5bc 2f5a bf3c 27e3 19bd 230d 69bd
000000c0: 0257 b6bc f9f0 be3c 0f0f 873c c963 55bc
000000d0: 2dfb 84bd 9537 ecbc 264a 743d 2ff4 16bd
000000e0: 4935 ccbc 51f7 01bd 1c22 11bd 2ea6 edbc
000000f0: 3036 5cbd 6dac 8bbc 0ae0 a3bd 12ae 153d
00000100: ef7a edbb d87e 58bd 84ec dc3a 10ee bfbd
00000110: da98 bc3d 99f1 21bc e74b b83d dd81 a83c
00000120: b6e4 a4bc 5dec 603c be8f bf3c e906 98bd
00000130: e337 e3bc 9ea3 81bd d2be ce3b 63af 29bd
00000140: 4cae 183d 0cf9 523d 5a79 5e3d 8346 19bd
00000150: 34b9 d33d 765b 54bd 6352 86bc 47ab 3fbd
00000160: 0c77 323b 7024 1d3d d193 e8bd 5e26 d5bb
00000170: 04dd a4bd c25a 14bd 2ce8 613a 206f a23d
00000180: f487 21bd 03a9 033c 0dd9 04bc a79b a13c
00000190: 9a07 1bbd 4fba e83c 5537 0e3d 9bdc e8bc
000001a0: db94 90bd 32a4 45bb 498a 323d 8f38 6a3d
000001b0: beb7 63bc 1cb5 bf3c 9d03 343d 7038 c2bc
000001c0: d5be c13c 63af 3bbd 73ac dd3c d9fd 863d
000001d0: 518d 523c 46c4 30bd 201e d7bc 966e d53c
000001e0: 0801 adbd 3071 d33d 1bd2 b03c 4ce3 99bd
000001f0: b75d c53d 5d4a 84bc 0cec 513c 42cb 15bd

main.13.weight f4 [10, 128]
-0.17432247 -0.118891604 -0.014998508 -0.07511992 -0.14807299 -0.0039532925 0.1447344 -0.103433244
-0.16251957 -0.03424534 0.11785996 -0.25936863 -0.12091461 0.101849034 -0.09338748 -0.09057797
-0.08921209 0.09947783 -0.19611828 0.13364536 0.10908205 0.10668865 0.10765593 0.04774774
-0.11918572 0.1737957 -0.041709106 -0.1756992 0.024992868 -0.13959633 -0.1998515 -0.17001393
-0.011958851 0.024715045 -0.0050456133 0.1675105 -0.019222524 -0.15218353 0.06927785 -0.17156464
-0.20608605 -0.10762545 -0.11387949 -0.18735668 -0.16274269 -0.16943473 0.07953814 -0.11891905
-0.13015732 -0.07072614 -0.15360056 0.115374885 0.11841357 -0.040809173 0.06262376 -0.094151035
0.025326714 -0.10146091 0.17136164 -0.090544045 -0.107378736 0.08048209 -0.089852355 0.070701875
-0.18123215 -0.16319323 -0.014549354 0.102372885 0.075902306 -0.029791916 -0.10380977 -0.0016992154
0.057612345 -0.058876973 0.124442406 0.1655871 0.06563454 -0.04037311 0.09791368 0.19076985
-0.18087775 -0.1339854 0.03478388 0.14307785 -0.28046778 -0.24326563 0.14293195 -0.10016413
-0.0899056 -0.073765196 -0.053390063 -0.03858148 0.009322976 0.039660316 0.14287569 0.087354384
-0.14296308 0.08341051 0.13318855 0.05962443 -0.14616013 0.07316567 -0.15426148 -0.15806845
-0.062419817 0.06363342 -0.20937176 0.15776502 0.10820381 0.16552176 0.052895185 -0.19951673
-0.24766849 -0.11172858 0.06224768 0.08552599 0.066133335 -0.062465917 -0.1578129 0.11501717
-0.018580431 0.19275132 0.10909519 0.14111389 0.10606781 0.079887226 -0.09600187 0.06709774
0.02767507 0.030600382 -0.1505539 -0.16036619 -0.02824736 -0.23403108 -0.13866478 -0.04407256
0.17636849 -0.06947506 -0.21867664 0.12386526 0.0728052 -0.1337544 0.05917005 -0.056259174
0.1084231 0.06363663 0.2268869 -0.100776106 -0.11875165 -0.09107269 0.078740485 -0.10587666
0.08308638 -0.13660006 -0.10290964 -0.24224336 -0.13095632 -0.06807517 0.1125022 0.08352244
0.13246569 -0.15054388 -0.13803662 -0.07790859 0.047533628 0.06721367 -0.14246917 -0.19251405
0.14497288 0.20109999 -0.19193035 0.15151021 0.035450786 0.051249214 0.06597887 -0.083486855
-0.065647736 0.17092319 0.1403747 -0.0011809579 -0.14655311 -0.15832852 0.18747738 -0.045151953
0.21762356 -0.058022603 0.18910196 -0.071573645 -0.12876505 -0.15024015 -0.10562988 -0.05103552
-0.15046811 0.045393057 -0.120090015 -0.10469762 -0.16594914 -0.007872413 -0.02366217 0.027017718
-0.12499382 0.094790295 -0.19288333 -0.19275896 0.11113802 0.025836281 -0.19148366 -0.030009137
0.10069508 -0.17596923 -0.08627394 0.006093506 -0.02273147 0.039260324 0.0052763014 -0.10265854
0.090234816 0.04104376 0.11353984 -0.07336725 -0.034886304 0.08336396 0.012405785 -0.22668071
0.13863342 0.12595403 -0.1938677 -0.12889066 -0.10607295 -0.14891173 0.05071073 -0.12817243
-0.17891712 -0.114959836 0.028051073 -0.12278911 -0.08880028 0.119680785 -0.0069539975 -0.21651822
-0.24346517 0.09541703 -0.21812418 0.17834724 -0.120867364 -0.041345775 -0.1173049 0.0117285885
0.057523068 0.093837395 0.14241989 -0.17372473 -0.32214218 0.09474867 0.060266 -0.0011861956
00000000: 9781 32be 717d f3bd 4dbc 75bc 79d8 99bd
00000010: 72a0 17be 9f8a 81bb 4135 143e cfd4 d3bd
00000020: 886b 26be d744 0cbd 9060 f13d f7cb 84be
00000030: 14a2 f7bd 3a96 d03d ef41 bfbd f180 b9bd
00000040: d4b4 b6bd 08bb cb3d 3bd3 48be 54da 083e
00000050: 6966 df3d 947f da3d b67a dc3d 2293 433d
00000060: a517 f4bd 80f7 313e 2bd7 2abd 7eea 33be
00000070: d8bd cc3c 57f2 0ebe dfa5 4cbe 2218 2ebe
00000080: 0eef 43bc 3577 ca3c ac55 a5bb df87 2b3e
00000090: 8e78 9dbc 00d6 1bbe 8ce1 8d3d a4ae 2fbe
000000a0: 3908 53be bb6a dcbd a639 e9bd 6eda 3fbe
000000b0: 05a6 26be 4c80 2dbe e4e4 a23d d58b f3bd
000000c0: f647 05be ded8 90bd 7749 1dbe ab49 ec3d
000000d0: d082 f23d 8527 27bd e340 803d 42d2 c0bd
000000e0: f879 cf3c bdca cfbd 6d79 2f3e 286f b9bd
000000f0: 62e9 dbbd cbd3 a43d 8304 b8bd 25cc 903d
00000100: ec94 39be 201c 27be 6a60 6ebc e0a8 d13d
00000110: ab72 9b3d 2d0e f4bc 379a d4bd 35b8 deba
00000120: ecfa 6b3d fb28 71bd a9db fe3d aa8f 293e
00000130: 676b 863d 465e 25bd f886 c83d 2c59 433e
00000140: 0438 39be 7833 09be 8b79 0e3d 0083 123e
00000150: 7999 8fbe a01a 79be c15c 123e da22 cdbd
00000160: 6d20 b8bd 3512 97bd 8aaf 5abd 9d07 1ebd
00000170: 65bf 183c db72 223d 014e 123e dbe6 b23d
00000180: ea64 12be 21d3 aa3d 9462 083e bf38 743d
00000190: 00ab 15be e2d7 953d b9f6 1dbe b2dc 21be
000001a0: ecab 7fbd 3d52 823d 8d65 56be 278d 213e
000001b0: f699 dd3d 897e 293e 9fa8 583d 1d4e 4cbe
000001c0: cf9c 7dbe f4d1 e4bd 6cf7 7e3d 4028 af3d
000001d0: ea70 873d 43dc 7fbd b499 21be 1f8e eb3d
000001e0: fd35 98bc 9a60 453e 4d6d df3d 2980 103e
000001f0: 143a d93d ea9b a33d a19c c4bd 8a6a 893d
00000200: d4b6 e23c a7ad fa3c cd2a 1abe 0937 24be
00000210: 0267 e7bc d8a5 6fbe 24fe 0dbe 6e85 34bd
00000220: f199 343e f148 8ebd c5ec 5fbe 12ad fd3d
00000230: e51a 953d eaf6 08be 4b5c 723d 0570 66bd
00000240: ee0c de3d ec53 823d 0a55 683e b463 cebd
00000250: 1134 f3bd 5284 babd b142 a13d ddd5 d8bd
00000260: 3129 aa3d e3e0 0bbe 4ac2 d2bd a50e 78be
00000270: 6a19 06be ff6a 8bbd 8e67 e63d d00d ab3d
00000280: 16a5 073e 2d28 1abe 7959 0dbe 8a8e 9fbd
00000290: 9fb2 423d 52a7 893d 70e3 11be 6722 45be
000002a0: c573 143e 28ed 4d3e 6489 44be 7e25 1b3e
000002b0: d834 113d b2ea 513d ee1f 873d 28fb aabd
000002c0: 5272 86bd 7d06 2f3e 63be 0f3e 5fca 9aba
000002d0: 0512 16be df20 22be 12fa 3f3e 41f1 38bd
000002e0: b6d8 5e3e 1ca9 6dbd f2a3 413e 3495 92bd
000002f0: fcda 03be 8ed8 19be 7b54 d8bd 9f0a 51bd
00000300: 5014 1abe 12ee 393d c1f1 f5bd b56b d6bd
00000310: 92ee 29be 4bfb 00bc 2bd7 c1bc 4354 dd3c
00000320: c3fc ffbd 6a21 c23d 3583 45be 9b62 45be
00000330: 559c e33d 9ca6 d33c 4b14 44be b9d5 f5bc
00000340: 3939 ce3d 4731 34be 64b0 b0bd 08ac c73b
00000350: 5937 babc 6fcf 203d d3e4 ac3b a43e d2bd
00000360: 08cd b83d 801d 283d 9387 e83d 9241 96bd
00000370: f1e4 0ebd b9ba aa3d a241 4b3c fd1e 68be
00000380: ebf5 0d3e 18fa 003e 4185 46be eafb 03be
00000390: c63c d9bd 517c 18be 0eb6 4f3d a23f 03be
000003a0: 0d36 37be 1070 ebbd 5dcb e53c db78 fbbd
000003b0: ecdc b5bd 331b f53d 5cde e3bb f4b6 5dbe
000003c0: ef4e 79be 016a c33d f25b 5fbe a9a0 363e
000003d0: 4f89 f7bd 305a 29bd 8d3d f0bd 4429 403c
000003e0: 4f9d 6b3d d22d c03d 85d6 113e e5e4 31be
000003f0: d2ef a4be 970b c23d 7bd9 763d 1f7a 9bba

main.13.bias f4 [10]
0.057309978 -0.054155946 -0.021970626 0.08996488 -0.0821367 0.04021368 0.07122799 0.017183091
0.043980718 -0.053825743
00000000: debd 6a3d a0d2 5dbd befb b3bc 823f b83d
00000010: 4937 a8bd 1ab7 243d fbdf 913d 8ec3 8c3c
00000020: 2025 343d 6278 5cbd
